harLSTM_model.tflite (tflite, 518600 bytes, 12 tensors)

arith.constant f4 [64, 64]
0	0x3e72a001	0.23693849
1	0xbeded9b2	-0.43525463
2	0xbefffcc9	-0.49997547
3	0xbe001deb	-0.12511413
4	0x3e877ab5	0.26460806
5	0xbe9247fb	-0.28570542
6	0xbf4b3e3e	-0.7939185
7	0x3ea9a14f	0.3313088
8	0x3e0a7ee4	0.13524967
9	0xbbd328f8	-0.006444093
10	0x3c0c4862	0.008562179
11	0xbe3b6c45	-0.1830302
12	0x3e2f8a0d	0.17142506
13	0xbeb0717a	-0.34461576
14	0xbe6a2184	-0.22864348
15	0xbef942a1	-0.48683646
16	0xbe10a444	-0.14125162
17	0xbcac0a26	-0.021000933
18	0xbe91230a	-0.28347045
19	0xbdb60d2c	-0.08889231
20	0xbeb73b1f	-0.35787293
21	0xbd38213b	-0.044953566
22	0x3de05cac	0.10955176
23	0x3dc52a9c	0.09627268
24	0xbec46411	-0.38357595
25	0x3e05794a	0.1303455
26	0x3e21f43f	0.15815829
27	0xbe23defa	-0.16003028
28	0x3efb75e4	0.4911338
29	0xbecdd7f8	-0.40203834
30	0xbe0f3f20	-0.13988924
31	0x3e101eb4	0.14074212
32	0x3eb9f282	0.3631783
33	0x3dbb29b9	0.09138817
34	0xbe860895	-0.26178423
35	0x3e6b4f62	0.22979501
36	0xbd6adf12	-0.057341643
37	0xbedc4b69	-0.43026283
38	0xbe851338	-0.25991225
39	0x3eb6a434	0.35672152
40	0x3dfc8775	0.12330524
41	0xbe63be38	-0.22240531
42	0xbe0baed7	-0.13640915
43	0x3e091d30	0.1339004
44	0xbe8338fd	-0.25629416
45	0x3e386867	0.18008576
46	0xbecaae4c	-0.39586103
47	0x3e90ebdd	0.2830495
48	0x3d644d34	0.05573769
49	0xbcc5faa7	-0.024167372
50	0x3e84ace3	0.25913152
51	0x3ea20364	0.31643212
52	0xbd2d9fcb	-0.04238872
53	0xbe092a46	-0.13395032
54	0x3d1f271d	0.03885566
55	0xbe5f6d00	-0.21818924
56	0x3e863a71	0.26216462
57	0xbea1cadd	-0.31600085
58	0x3e3d7248	0.18500626
59	0xbda68aa1	-0.0813191
60	0x3e99637f	0.29958722
61	0xbe30f325	-0.17280252
62	0x3ec2a528	0.3801663
63	0x3e31571a	0.17318383
64	0x3e89c0ed	0.26905003
65	0xbdfe6d05	-0.124231376
66	0x3e16cdb0	0.14726901
67	0xbd8372d1	-0.06418384
68	0xbd8f6560	-0.070017576
69	0xbf074e79	-0.52854115
70	0x3dbbb1c5	0.09164766
71	0x3e684bcf	0.22685169
72	0x3e83ab84	0.25716794
73	0xbe1982d4	-0.14991313
74	0xbe653f5d	-0.22387452
75	0x3e0d16c6	0.13778219
76	0x3ef771aa	0.48328906
77	0x3e63cd5e	0.2224631
78	0xbd64eee4	-0.055891886
79	0x3e75f2ec	0.24018449
80	0xbeb949db	-0.3618916
81	0x3e1791cd	0.14801712
82	0xbe614811	-0.22000147
83	0x3e12f81e	0.14352462
84	0x3e37dd25	0.17955454
85	0x3ee14cf3	0.4400402
86	0x3ed19c7d	0.40939704
87	0x3ee1cf34	0.44103396
88	0xbe3693e4	-0.17829853
89	0xbe3dfbd0	-0.1855309
90	0xbe9ffed9	-0.3124912
91	0xbddfe003	-0.10931399
92	0x3f02c861	0.51087004
93	0xbf03deda	-0.5151192
94	0x3ebd15d1	0.36930707
95	0xbe6d9808	-0.23202527
96	0xbeded3a4	-0.43520844
97	0xbddf6ee8	-0.109098256
98	0x3de39d4e	0.11113988
99	0xbe1b1313	-0.15143995
100	0x3e3f58f2	0.18686274
101	0xbe957162	-0.29188067
102	0x3e346938	0.17618263
103	0xbd1423dc	-0.03616701
104	0x3df045a4	0.11732033
105	0xbd815f03	-0.0631695
106	0xbe8a730d	-0.27040902
107	0x3e750ba2	0.23930219
108	0xbe92bc7d	-0.2865943
109	0xbdf042e3	-0.11731508
110	0xbef44f6e	-0.4771685
111	0xbe91ed05	-0.28501144
112	0x3bfb4611	0.0076682647
113	0xbe0a3435	-0.13496478
114	0x3e83ca75	0.257404
115	0xbe827092	-0.2547651
116	0x3ee8b164	0.45447838
117	0x3e5ac843	0.21365456
118	0x3effc83a	0.49957448
119	0xbeac5376	-0.33657426
120	0xbcdcd4b6	-0.026956897
121	0x3e80e582	0.251751
122	0xbe006a90	-0.1254065
123	0x3e84719b	0.25867924
124	0x3f0649ac	0.52456164
125	0xbdea8c19	-0.11452503
126	0x3e75b410	0.2399447
127	0xbd980ebd	-0.07424686
128	0x3d476a4d	0.04868536
129	0x3e3eaf16	0.18621477
130	0x3e247ef7	0.16064058
131	0xbe98620b	-0.297623
132	0x3cc3398a	0.023831148
133	0x3e92a576	0.28641862
134	0x3db7c849	0.08973748
135	0xbe596fd9	-0.21234073
136	0x3dc58a2f	0.09645497
137	0xbe9a98c0	-0.30194664
138	0xbe3696c1	-0.17830946
139	0x3de09cd6	0.10967414
140	0x3ed022f4	0.40651667
141	0xbe220209	-0.15821089
142	0xbbb64e89	-0.0055635613
143	0x3d577aa1	0.052607182
144	0x3d8d945f	0.06913065
145	0xbedc85c7	-0.43070814
146	0x3eb2dd14	0.34934294
147	0xbd59c72c	-0.05316846
148	0xbf287305	-0.65800506
149	0xbeeb8f58	-0.460078
150	0xbea23437	-0.31680462
151	0xbeca5508	-0.39518
152	0xbe58164d	-0.21102257
153	0x3da0e9bc	0.07857081
154	0x3f2b30e3	0.6687147
155	0xbf031650	-0.5120592
156	0xbe97c3d2	-0.29641587
157	0x3e844577	0.25834247
158	0xbf13808d	-0.5761803
159	0xbe6d343b	-0.23164456
160	0xbe8ee840	-0.27911568
161	0x3dda354e	0.10654698
162	0xbe6d3051	-0.23162962
163	0x3ca17344	0.019708283
164	0xbea2f91d	-0.31830683
165	0xbb5fcaee	-0.0034148055
166	0xbe2c16f2	-0.16805628
167	0xbe7d42ca	-0.2473251
168	0x3e6783aa	0.2260882
169	0x3f07198a	0.52773345
170	0x3e39700a	0.18109146
171	0xbe14325d	-0.14472337
172	0x3ed83641	0.42228892
173	0xbe9c22fa	-0.30495435
174	0x3f0aadda	0.54171526
175	0xbe8e7db8	-0.2783029
176	0xbe5e13b5	-0.21687205
177	0xbe149e96	-0.1451362
178	0x3e9db930	0.3080535
179	0x3ed28825	0.41119495
180	0x3e3ca9c6	0.18424138
181	0xbde375e6	-0.11106472
182	0xbd77236f	-0.060336526
183	0xbd157b7b	-0.036494713
184	0x3e779805	0.24179085
185	0x3e851361	0.25991347
186	0x3d94ba3f	0.07262086
187	0x3e6b931a	0.23005334
188	0x3e59dcc2	0.21275619
189	0x3d606693	0.054785322
190	0xbeae0f79	-0.3399618
191	0x3e30067f	0.17189978
192	0x3b399979	0.0028320237
193	0xbf01e7d6	-0.5074438
194	0x3d7c3410	0.06157309
195	0x3d74fa31	0.059808914
196	0xbb0bdabb	-0.002134009
197	0x3ea5af2a	0.32360202
198	0xbd98a7f2	-0.07453908
199	0x3e2f2491	0.17103793
200	0xbc87365b	-0.01650541
201	0x3f118ad4	0.5685246
202	0xbe8c96f9	-0.27458933
203	0x3c8b5b22	0.017011229
204	0xbea228ff	-0.31671903
205	0x3e2d5d90	0.16930223
206	0x3e1d0992	0.15335682
207	0xbd2898de	-0.04116141
208	0xbe61362a	-0.21993318
209	0xbe087cfd	-0.13328929
210	0xbf11cfff	-0.56958
211	0xbea5b858	-0.32367206
212	0xbc8c8fee	-0.017158475
213	0x3f108a3c	0.5646093
214	0xbd4e1519	-0.05031309
215	0x3f13d0ca	0.5774046
216	0x3dcdb9dc	0.100452155
217	0xbe4baf6e	-0.1989114
218	0xbf052a84	-0.52018
219	0xbe284ef7	-0.16436373
220	0xbd471ef5	-0.048613507
221	0xbe4d71ac	-0.20062894
222	0x3d52f0f0	0.051499307
223	0x3ed4bdbf	0.41551015
224	0x3e49852a	0.19679704
225	0xbd157218	-0.03648576
226	0xbe94e7b8	-0.29083037
227	0xbe0ca0c7	-0.13733207
228	0x3ea2fb25	0.31832233
229	0x3e6fa1d3	0.23401575
230	0xbde82fc8	-0.113372386
231	0x3dd4f3db	0.10398074
232	0x3e9897a8	0.29803205
233	0xbdea77e1	-0.11448646
234	0xbeb391ea	-0.3507226
235	0xbe774ba9	-0.24149956
236	0x3d1ef28f	0.03880554
237	0x3e08e9b2	0.13370398
238	0xbd381788	-0.044944316
239	0x3e9b6596	0.3035094
240	0x3ed7470d	0.42046395
241	0xbb96c412	-0.00460101
242	0xbe25f7a0	-0.16207743
243	0x3e00f7ef	0.12594579
244	0xbe0ea50a	-0.13930145
245	0x3e9274ec	0.2860483
246	0x3f062a12	0.52407944
247	0x3dfa455d	0.12220261
248	0xbea23771	-0.31682923
249	0xbeeb586c	-0.45965898
250	0x3ef5b9f6	0.4799344
251	0xbe36c655	-0.17849095
252	0x3e863011	0.26208547
253	0xbe30fd66	-0.17284164
254	0x3f035959	0.5130821
255	0xbe2c7088	-0.16839802

arith.constant1 f4 [64]
0	0xbe37c669	-0.17946781
1	0x3e12eaa8	0.14347327
2	0xbddf1dca	-0.10894354
3	0xbdf9d540	-0.12198877
4	0xbe7f1acc	-0.24912566
5	0x3ed95c5c	0.42453277
6	0xbe38a082	-0.18029979
7	0xbed65c37	-0.4186723
8	0xbe4ebdae	-0.20189545
9	0xba6459fa	-0.00087109173
10	0xbecd9aa1	-0.40157035
11	0x3cd11c04	0.025526054
12	0x3e9ab3ce	0.30215305
13	0x3ebada4e	0.36494678
14	0x3f0c05d4	0.54696393
15	0xbe60b144	-0.21942621
16	0x3da74a5b	0.08168479
17	0xbc9ec3af	-0.019380419
18	0xbdc9dcf2	-0.09856595
19	0xbd3820dd	-0.044953216
20	0xbd98e383	-0.074652694
21	0x3f050e36	0.5197481
22	0xbee0e0da	-0.43921548
23	0xbcdfefc8	-0.027336016
24	0x3f3945cc	0.72372127
25	0x3d824a64	0.06361845
26	0xbe8917c7	-0.26775953
27	0x3cfbb8c9	0.03072776
28	0xbdf30f78	-0.11868185
29	0x3e3257d7	0.1741632
30	0x3e97914e	0.29603046
31	0xbe44eaf1	-0.19230248
32	0x3ce2368d	0.027613902
33	0xbda91005	-0.082550086
34	0x3e72d10c	0.23712558
35	0x3ebe537c	0.3717307
36	0x3d4dbc79	0.05022857
37	0x3de5980b	0.112106405
38	0x3e701f65	0.23449476
39	0xbdddc630	-0.10828817
40	0x3c251f66	0.010078287
41	0xbe941847	-0.28924772
42	0xbd998992	-0.074969426
43	0xbd8dff4f	-0.06933462
44	0x3f0054dc	0.50129485
45	0xbe69a330	-0.22816157
46	0xbf1c204b	-0.60986775
47	0xbec17730	-0.37786245
48	0x3eb93079	0.36169794
49	0xbe1be377	-0.1522349
50	0xbe150d46	-0.14555845
51	0x3f127c63	0.5722105
52	0x3d488609	0.04895595
53	0xbf181d88	-0.5942006
54	0xbd8a75e2	-0.067607656
55	0xbe22e18e	-0.15906355
56	0xbe0d7e5b	-0.13817732
57	0x3d393846	0.045219682
58	0xbe55113b	-0.20807354
59	0x3dccc070	0.09997642
60	0x3e5c89eb	0.21536987
61	0x3ea0f922	0.31440073
62	0xbc9b6d8e	-0.018973138
63	0x3e7d0be2	0.24711564

arith.constant5 f4 [5, 64]
0	0xbe7e5b7a	-0.24839583
1	0xbdfbf470	-0.12302482
2	0x3de40a0e	0.1113473
3	0xbebdad68	-0.3704636
4	0x3dbf6d12	0.093469754
5	0x3e33ca18	0.17557561
6	0xbd8732a0	-0.06601453
7	0x3e8300e0	0.25586605
8	0xbdf0d602	-0.11759569
9	0x3dd95b1a	0.10613079
10	0xbd00de1f	-0.03146183
11	0xbe53347e	-0.20625493
12	0x3e38d067	0.18048249
13	0xbe00d9bc	-0.12583059
14	0xbe4bfbfe	-0.19920346
15	0x3df87b5a	0.121329024
16	0x3dca191e	0.09868072
17	0xbe436d04	-0.19084555
18	0xbda1f803	-0.079086326
19	0xbdb60e3f	-0.08889436
20	0xbd73f82a	-0.05956284
21	0x3e7547b8	0.2395314
22	0x3e3341d2	0.17505577
23	0x3e379fb0	0.1793201
24	0x3e04c0a6	0.12964115
25	0x3d9eec9d	0.07759974
26	0xbdaa2797	-0.083083324
27	0xbe62a843	-0.22134499
28	0x3e2e5849	0.17025866
29	0xb8d4440d	-0.00010121623
30	0x3e5033b9	0.2033223
31	0x3e5eb7cb	0.21749799
32	0x3d8078ae	0.06273018
33	0x3d636fcd	0.055526543
34	0x3e37fec0	0.17968273
35	0xbe3b8c89	-0.18315329
36	0x3e3997b4	0.18124276
37	0x3e5df3ab	0.21674983
38	0xbe4dc491	-0.20094515
39	0xbe21bc81	-0.15794565
40	0x3e00ee43	0.1259089
41	0xbdea8487	-0.11451059
42	0x3e3ba4fe	0.18324658
43	0x3dd5787f	0.104233734
44	0x3e3c3e9a	0.18383256
45	0x3d991148	0.07473999
46	0x3e775c09	0.24156202
47	0xbe366c04	-0.17814642
48	0x3e2e4870	0.1701982
49	0xbdd7dc4d	-0.10540066
50	0xbe4e2d51	-0.20134474
51	0xbe4f074f	-0.20217632
52	0x3e148962	0.14505532
53	0xbc7c73f3	-0.015408504
54	0x3e01d940	0.1268053
55	0xbe26ecf5	-0.1630133
56	0xbe4faa39	-0.20279779
57	0xbe3c351d	-0.18379636
58	0xbe6549dc	-0.22391456
59	0xbd3ff2dc	-0.046862468
60	0xbca3f13a	-0.020012487
61	0x3e244c73	0.16044788
62	0x3d97df5b	0.074156485
63	0xbe27f37f	-0.1640148
64	0x3c7dbc88	0.015486844
65	0x3ea79da6	0.32737464
66	0xbe480b27	-0.19535504
67	0x3e69a34b	0.22816198
68	0xbdfe382e	-0.12413059
69	0x3e05e384	0.13075072
70	0x3e149092	0.14508274
71	0xbe2681e9	-0.16260494
72	0xbdac909f	-0.08426022
73	0xbdc99f6a	-0.09844859
74	0xbe6258d0	-0.22104192
75	0x3e1d511e	0.15362975
76	0x3e6e1757	0.23251091
77	0x3e5a22ca	0.21302333
78	0x3e70db3a	0.23521128
79	0xbe1eec4d	-0.15519829
80	0xbd263ec7	-0.040587213
81	0x3e0e8352	0.13917282
82	0x3cd75f19	0.026290463
83	0xbe11e358	-0.14246881
84	0xbe7252e6	-0.23664436
85	0x3e8ea083	0.27856836
86	0xbdfe7969	-0.12425501
87	0x3cde4c6b	0.027136048
88	0x3e48d4ba	0.19612399
89	0xbd7369ff	-0.059427258
90	0xbd1dbc7d	-0.038509835
91	0x3dc3a7f2	0.095535174
92	0xbd894f3d	-0.06704567
93	0x3cebdb2f	0.028791038
94	0x3d23e398	0.040011972
95	0xbe4c82a2	-0.19971707
96	0xbd4c15eb	-0.04982559
97	0x3e2ed02c	0.17071599
98	0x3e7056cf	0.23470615
99	0x3e824a65	0.25447384
100	0x3dbb7812	0.09153761
101	0x3e7d44c8	0.24733269
102	0x3e33d37c	0.17561144
103	0xbb98ffa1	-0.004669145
104	0x3d80ce64	0.06289366
105	0xbc5a0558	-0.013306938
106	0xbe1e0155	-0.15430196
107	0xbe833516	-0.2562644
108	0x3e70f102	0.23529437
109	0xbe51677d	-0.20449634
110	0xbe79c316	-0.24390826
111	0xbe5885df	-0.21144818
112	0x3e7cbae4	0.24680668
113	0x3d919a10	0.07109463
114	0xbd6f8e86	-0.05848553
115	0x3e7bfdd7	0.24608551
116	0xbe253808	-0.16134655
117	0xbe1344fd	-0.14381786
118	0xbdf52a0f	-0.11970913
119	0xbe58bdcd	-0.21166153
120	0xbe49b513	-0.1969798
121	0x3e5cd336	0.21564946
122	0xbe52871c	-0.20559353
123	0x3e14217d	0.144659
124	0xbd878391	-0.06616891
125	0xbd79cb56	-0.060984932
126	0x3df2ca4e	0.11854993
127	0x3e6a1fc4	0.2286368
128	0xbdf1d1ab	-0.11807569
129	0xbda1d160	-0.07901263
130	0x3e2417f5	0.16024764
131	0xbca4e8d3	-0.02013055
132	0x3e39415e	0.18091342
133	0xbc9d9623	-0.01923663
134	0xbdc0a0c0	-0.09405661
135	0xbe967214	-0.2938391
136	0x3e9fd689	0.31218365
137	0xbeca63c6	-0.39529246
138	0x3c47219c	0.012154009
139	0xbe9c363c	-0.30510128
140	0xbeb98ebd	-0.36241713
141	0x3e7630e7	0.24042092
142	0x3ea0aef2	0.31383473
143	0xbe2b2132	-0.16711882
144	0xbbc2ea2f	-0.005948327
145	0xbdc47491	-0.09592546
146	0x3e759dce	0.23985979
147	0x3e69934f	0.228101
148	0x3df8b4da	0.1214387
149	0xbe0ff595	-0.14058526
150	0xbe439b80	-0.19102287
151	0xbe6a1b9f	-0.22862099
152	0x3e975f5b	0.29564938
153	0xbe787dbd	-0.24266715
154	0x3e932557	0.28739426
155	0x3d7fdf9d	0.062469114
156	0x3e92fec5	0.2871
157	0xbd2b3634	-0.04179974
158	0xbe8ec399	-0.27883604
159	0xbef36206	-0.47535723
160	0xbeab5fe9	-0.3347161
161	0xbe6e8a23	-0.23294882
162	0xbe57fc16	-0.21092257
163	0x3df81ed3	0.12115254
164	0xbc70f208	-0.014706142
165	0xbe1ceae8	-0.15323985
166	0xbe34f093	-0.17669897
167	0xbdef0757	-0.11671322
168	0x3db5c744	0.088758975
169	0x3e7ba470	0.24574447
170	0xbe9ba80a	-0.3040164
171	0x3e896dc3	0.26841554
172	0x3dd1cf32	0.102445975
173	0xbeae17dd	-0.3400258
174	0x3e3e3fac	0.18578976
175	0xbd398ddb	-0.0453013
176	0xbe863f00	-0.2621994
177	0xbee0359a	-0.43790895
178	0x3e911895	0.28339067
179	0x3e3722e6	0.17884406
180	0x3e99a66a	0.30009776
181	0xbe9b09be	-0.3028087
182	0xbea33797	-0.3187835
183	0x3e9612fb	0.29311356
184	0xbe8e4e89	-0.27794293
185	0xbd4ad2cc	-0.049517438
186	0x3e27fae8	0.16404307
187	0xbe847ac1	-0.25874904
188	0x3dbf39a8	0.09337169
189	0xbe8e6303	-0.27809915
190	0xbebc3a80	-0.36763382
191	0x3eb6b2a3	0.35683164
192	0x3d93c4e0	0.07215285
193	0x3e65f143	0.22455315
194	0x3da2e4ff	0.07953834
195	0x3c3b30e4	0.011425231
196	0xbd06cbc6	-0.032909177
197	0xbe10eb62	-0.14152291
198	0xbcb5c118	-0.0221868
199	0x3e6699a3	0.22519545
200	0x3e6d973c	0.23202223
201	0x3d86ddd2	0.065852776
202	0x3da42f01	0.08016778
203	0xbccacde9	-0.024756389
204	0xbc84ac5f	-0.016195474
205	0xbe28e668	-0.16494143
206	0xbe14b002	-0.14520267
207	0x3e4c55d6	0.19954619
208	0x3ddee829	0.10884125
209	0xbe0dfc77	-0.13865839
210	0x3e6ecde2	0.23320726
211	0xbe6dd34e	-0.23225138
212	0x3e732f67	0.23748551
213	0x3e11573c	0.14193434
214	0x3cab6683	0.020922905
215	0x3e41b169	0.18915333
216	0xbe70cac4	-0.23514849
217	0x3dd02b66	0.101645276
218	0xbd1026e6	-0.035193346
219	0x3dba41bf	0.09094571
220	0x3d6e663e	0.058202974
221	0xbe28affb	-0.16473381
222	0x3e4c6893	0.19961767
223	0x3e3ebcc6	0.18626699
224	0x3e57eefb	0.21087258
225	0xbd349f07	-0.044096973
226	0x3d9d6680	0.07685566
227	0xbe4c1384	-0.1992932
228	0x3cf4fec0	0.02990663
229	0xbc9831fc	-0.018578522
230	0x3de750a9	0.112946816
231	0xbd270606	-0.04077723
232	0xbe3068d1	-0.17227484
233	0xbdfe35ce	-0.12412606
234	0x3dbd59db	0.09245654
235	0x3dec4f43	0.115385555
236	0xbd2292b1	-0.039690677
237	0xbdb733a6	-0.08945398
238	0x3cc3df9e	0.02391034
239	0x3da8df9f	0.08245777
240	0x3e2f2899	0.1710533
241	0xbdef7f34	-0.11694184
242	0x3b572181	0.0032826366
243	0xbe419b98	-0.1890701
244	0xbe881a16	-0.26582402
245	0x3cb05b53	0.021527922
246	0xbddd96e8	-0.10819799
247	0x3e8213f6	0.25405854
248	0x3c8f5161	0.01749486
249	0xbe741266	-0.23835143
250	0x3dc8aa06	0.097980544
251	0x3d538da0	0.051648736
252	0xbea25924	-0.31708634
253	0x3e1e2083	0.1544209
254	0x3e723bf2	0.2365568
255	0x3e0dd2c2	0.13849929

arith.constant6 f4 [128]
0	0x3b2c2ad0	0.0026270635
1	0xbcdc05f9	-0.026858317
2	0xbea36b70	-0.31917906
3	0xbd80f711	-0.06297124
4	0xbe15cd6a	-0.1462914
5	0x3e847631	0.25871423
6	0x3f0eac61	0.5573178
7	0xbd0d6272	-0.034517713
8	0xbec330a6	-0.38123053
9	0xbe13f122	-0.14447454
10	0xbf6d642a	-0.92730963
11	0xbe36ff05	-0.1787072
12	0x3e8d6638	0.2761705
13	0x3eb329ff	0.34992978
14	0xbef3f3d2	-0.47646958
15	0x3d331bda	0.043727733
16	0xbef83371	-0.48476747
17	0xbf1e1f27	-0.61766285
18	0xbef0a222	-0.46998698
19	0x3f2960af	0.6616315
20	0xbe0dbff4	-0.13842756
21	0xbdab4d8f	-0.083644025
22	0xbefa4791	-0.48882726
23	0x3f3a3015	0.7272962
24	0x3f151b50	0.582448
25	0xbe8dfd5e	-0.27732366
26	0x3b7e5cb8	0.003881259
27	0xbf012c2c	-0.50458026
28	0xbe746ff6	-0.23870835
29	0x3ec84bb0	0.39120245
30	0x3e96c3c1	0.29446223
31	0xbdabcdfd	-0.083888985
32	0xbde8929e	-0.1135609
33	0x3e702248	0.23450577
34	0x3e31e2fd	0.17371745
35	0xbdf3a7d3	-0.11897244
36	0xbee2be64	-0.44285882
37	0x3f5724de	0.8404063
38	0xbe7a0909	-0.24417509
39	0xbf4d2c54	-0.80145764
40	0x3e5f139c	0.21784824
41	0xbe7aa32c	-0.24476308
42	0xbd45fc49	-0.0483363
43	0xbeb984f6	-0.36234254
44	0x3d131bea	0.035915293
45	0xbf446118	-0.76710653
46	0xbca531c4	-0.020165332
47	0x3d9d8a72	0.07692422
48	0xbec2ec59	-0.38070944
49	0x3f05d569	0.52278763
50	0xbf11d529	-0.5696588
51	0x3ee10b0a	0.43953735
52	0x3f319a6f	0.6937627
53	0xbe8c65b0	-0.2742133
54	0x3e0ba7c3	0.13638215
55	0x3ee35e1a	0.4440773
56	0xbf5256e9	-0.82163864
57	0xbe9551ec	-0.29164064
58	0xbd8615e7	-0.06547146
59	0xbf53505c	-0.82544494
60	0xbece4d7c	-0.4029349
61	0x3f38c5ac	0.72176623
62	0xbaa5b580	-0.0012642592
63	0x3f9a26d3	1.2043098
64	0x3deb736b	0.114966236
65	0xbea2340b	-0.3168033
66	0x3e001b33	0.12510376
67	0xbca6674e	-0.020312931
68	0x3bbb3248	0.005712781
69	0x3d9392cc	0.07205734
70	0xbc515d06	-0.012778526
71	0xbf08827e	-0.53324115
72	0x3f5a4dbf	0.8527488
73	0x3e693772	0.22775057
74	0x3e01c554	0.12672931
75	0xbda17c28	-0.07885009
76	0xbe0df17c	-0.1386165
77	0xbd1d74b0	-0.03844136
78	0x3e9a3677	0.30119678
79	0xbd45dca1	-0.04830611
80	0xbf1aad90	-0.60421085
81	0x3eb7a173	0.35865363
82	0xbee6f3f9	-0.4510801
83	0xbce987da	-0.028507162
84	0x3de203f4	0.1103591
85	0xbe82a1e6	-0.25514144
86	0x3ea3570e	0.31902355
87	0x3e9dcf7a	0.30822355
88	0xbe2e3d2b	-0.17015521
89	0x3e81ae2d	0.25328198
90	0x3f4f53e5	0.8098739
91	0xbdde56c2	-0.108563915
92	0xbf3a341a	-0.7273575
93	0x3f32bed7	0.6982245
94	0xbeabe68f	-0.3357434
95	0x3cb0db98	0.021589085
96	0x3ec906ac	0.39262903
97	0x3e8f09ca	0.27937156
98	0xbf29c9fd	-0.66323835
99	0xbe1b2244	-0.1514979
100	0xbf71e2a5	-0.9448646
101	0x3e806a98	0.25081325
102	0x3efed73d	0.4977359
103	0xbe3d1322	-0.1846433
104	0x3f17e73f	0.5933723
105	0x3e5183b1	0.20460393
106	0xbdff2e4f	-0.124600045
107	0xbf0ff1ca	-0.56228316
108	0x3e868f3c	0.26281154
109	0x3dd268ee	0.1027392
110	0xbe8caaee	-0.2747416
111	0x3e72d68f	0.2371466
112	0xbe083895	-0.13302834
113	0xbe1a8d4f	-0.15092967
114	0x3e03193b	0.12802593
115	0x3e0bfb00	0.13669968
116	0x3f204d74	0.62618184
117	0xbee0afb5	-0.43884054
118	0x3e7a1e5d	0.24425645
119	0xbf3ac6c9	-0.7295957
120	0xbed12ac7	-0.4085295
121	0xbe5132c6	-0.20429525
122	0xbee997b1	-0.45623544
123	0xbcfac40a	-0.030611057
124	0x3efb50b3	0.49085006
125	0x3dc8b21a	0.09799595
126	0xbe4bd55a	-0.19905606
127	0x3d944bb8	0.07241005

arith.constant7 f4 [128]
0	0x405e09e3	3.4693534
1	0x406996f9	3.6498396
2	0x404f0752	3.2348218
3	0x4086367e	4.194152
4	0x4033f164	2.8116083
5	0x405429c5	3.3150494
6	0x402fd15e	2.7471538
7	0x40276b68	2.6159306
8	0x401fb2a0	2.4952774
9	0x3fe5f794	1.796618
10	0x3ff92200	1.9463501
11	0x4009ab92	2.1510968
12	0x3fb4f008	1.4135752
13	0x3ffbb7cd	1.9665467
14	0x4058ce18	3.387579
15	0x4040655b	3.0061862
16	0x3ff0adfc	1.8803096
17	0x40689852	3.634297
18	0x3fd9c8ea	1.7014439
19	0x4010002a	2.25001
20	0x3fe5b55d	1.7945973
21	0x4076f41e	3.8586497
22	0x3fd168b6	1.636008
23	0x4003868b	2.0550869
24	0x4057b265	3.3702633
25	0x4058f107	3.3897111
26	0x402e5a0a	2.7242455
27	0x402a9e84	2.665925
28	0x4041d3d7	3.0285547
29	0x3fceaae9	1.6145908
30	0x400dcc84	2.2156076
31	0x4076767b	3.8509815
32	0x40356f5b	2.8349216
33	0x4021b7b6	2.5268378
34	0x405737be	3.3627772
35	0x40103d09	2.2537253
36	0x4016c493	2.355748
37	0x3ff91029	1.9458057
38	0x40480a2d	3.125621
39	0x40219bfb	2.5251453
40	0x407cb792	3.9487042
41	0x402fefc4	2.7490091
42	0x4048dd81	3.1385195
43	0x401f1d3b	2.486159
44	0x4077fc23	3.8747642
45	0x3ff6054b	1.9220365
46	0x403c798f	2.9449193
47	0x4023de97	2.5604608
48	0x40232873	2.5493438
49	0x401026d2	2.2523694
50	0x40276e07	2.6160905
51	0x3ffb8cb4	1.9652314
52	0x400c0182	2.187592
53	0x405eff2f	3.4843252
54	0x40273a42	2.6129308
55	0x3fca2380	1.5792084
56	0x3fe748e3	1.8069118
57	0x40324ba4	2.7858667
58	0x40465757	3.0990808
59	0x3ff114e0	1.8834496
60	0x4038e937	2.8892343
61	0x402eb6cd	2.7299073
62	0x4036b15a	2.8545747
63	0x402d9e12	2.7127728
64	0x401d44b2	2.4573178
65	0x3fc5cd0f	1.5453204
66	0x4009cc48	2.1530933
67	0x40849edf	4.1443934
68	0x402c4fab	2.6923625
69	0x40345ac7	2.8180406
70	0x408e5380	4.447693
71	0x40123784	2.2846384
72	0x3ff8f787	1.9450539
73	0x40269557	2.602865
74	0x4054c851	3.3247263
75	0x40375598	2.8645992
76	0x3fc0993a	1.5046761
77	0x405c0db2	3.438336
78	0x4088e9fb	4.278562
79	0x40436659	3.0531218
80	0x4035534f	2.8332098
81	0x405f4ac1	3.4889376
82	0x4005b009	2.0888693
83	0x3fa71f09	1.3056346
84	0x401defe8	2.4677677
85	0x4045b562	3.0891957
86	0x40615bd6	3.5212302
87	0x405e4400	3.4729004
88	0x3ff8e846	1.9445884
89	0x3fbf25cc	1.493341
90	0x406d8db1	3.7117732
91	0x401dc704	2.465272
92	0x401ebbb9	2.4802077
93	0x40139e08	2.3065205
94	0x4071a214	3.7755175
95	0x40465179	3.0987227
96	0x3fcc645c	1.5968127
97	0x400b51e2	2.1768727
98	0x4082e56f	4.090507
99	0x404f190b	3.2359035
100	0x404b88fe	3.1802363
101	0x406f23ef	3.7365682
102	0x40ae05a3	5.438188
103	0x405b2eed	3.4247391
104	0x404f771c	3.2416449
105	0x402e2eae	2.721599
106	0x4066ca19	3.606085
107	0x40069592	2.102879
108	0x405f75fd	3.4915764
109	0x40148699	2.3207152
110	0x401053c4	2.2551126
111	0x4022189f	2.5327528
112	0x40730b13	3.797551
113	0x401aea57	2.420553
114	0x403ab445	2.9172528
115	0x3fde7ee5	1.7382475
116	0x401a92dc	2.4152136
117	0x3fd3ba91	1.654131
118	0x3fde6895	1.7375666
119	0x40477eab	3.1171062
120	0x401111aa	2.2667031
121	0x3fcfb13c	1.6225963
122	0x3fc9f335	1.5777346
123	0x401191f0	2.2745323
124	0x4030fd53	2.7654617
125	0x3feca53c	1.8487926
126	0x404be6e8	3.1859684
127	0x40479ff2	3.1191373

arith.constant8 f4 [5]
0	0x3c87ea63	0.016591256
1	0x3c8b0719	0.016971158
2	0x3c8cf512	0.017206702
3	0xbc92289f	-0.017841635
4	0xbd2ee25c	-0.042696342

arith.constant22 f4 [512, 9]
0	0xbd9ec494	-0.07752338
1	0x3d841e34	0.06451073
2	0xbb801177	-0.003908332
3	0xbcb5ab95	-0.022176543
4	0xbd76d6db	-0.060263496
5	0x3dd527db	0.104079925
6	0xbe45ee05	-0.19329078
7	0x3e1ee9aa	0.15518823
8	0xbd52f7fa	-0.05150602
9	0x3e323dde	0.17406413
10	0x3d7bacdc	0.06144415
11	0xbcf06bdf	-0.029348312
12	0xbcc73240	-0.024315953
13	0xbb6e2866	-0.0036339997
14	0x3e13b905	0.14426048
15	0xbd91ffa7	-0.0712884
16	0x3df08426	0.11743955
17	0x3c2d82eb	0.010590295
18	0x3dbffd29	0.09374458
19	0x3ca0d2ad	0.019631708
20	0xbe60f9eb	-0.21970336
21	0xbc24b9fb	-0.010054107
22	0x3db30b17	0.087423496
23	0xbd2a9659	-0.04164729
24	0xbe1aa5db	-0.15102331
25	0x3b93bb58	0.004508417
26	0x3bcd8d37	0.0062729376
27	0x3ea045d6	0.3130328
28	0xbe1134e5	-0.14180334
29	0xbd743fd7	-0.059631195
30	0x3df28943	0.11842587
31	0xbd0a5b39	-0.033778403
32	0x3b148748	0.0022663642
33	0xbbd16555	-0.0063902535
34	0xbc4a81c4	-0.01236004
35	0xbd7f11f3	-0.062272977
36	0x3db727a8	0.08943111
37	0xbd8f70e2	-0.070039526
38	0x3e95c89c	0.29254615
39	0xbe07c5cb	-0.13259046
40	0x3e072299	0.13196792
41	0x3d163266	0.036669157
42	0xbd95880d	-0.0730134
43	0xbe3bc54f	-0.18336986
44	0x3d121540	0.035664797
45	0xbda3ca77	-0.079976015
46	0x3def8fab	0.11697324
47	0x3da0b104	0.07846263
48	0xbe11ea25	-0.14249475
49	0xbd2e8e44	-0.042616144
50	0xbb2e5b75	-0.0026604806
51	0x3c9e4eb3	0.019324636
52	0xbdfe6b70	-0.12422836
53	0x3e310ffd	0.17291255
54	0xbd925ccb	-0.07146605
55	0x3d75f332	0.060046382
56	0xbdec0a42	-0.11525394
57	0xbdead889	-0.11467082
58	0x3d38dff6	0.04513546
59	0x3c0e46f2	0.008683907
60	0xbe4cb1fe	-0.19989774
61	0xbd6658ba	-0.05623696
62	0x3dc5d025	0.09658841
63	0xb98d4d6d	-0.00026951302
64	0x3c8be813	0.017078435
65	0xbe4b9c60	-0.19883871
66	0x3df99ee3	0.12188508
67	0x3d072fee	0.033004694
68	0xbd8a1af9	-0.06743426
69	0xbd4ae096	-0.049530588
70	0xbe72adcc	-0.23699111
71	0x3d1cd658	0.03829035
72	0x3e1592c3	0.14606766
73	0xbd700e98	-0.058607668
74	0x3e2c5e8b	0.1683294
75	0xbc7d296a	-0.015451768
76	0xbdf1271c	-0.11775038
77	0xbd5ea003	-0.054351818
78	0xbdcf9aea	-0.101369694
79	0xbcd2d94f	-0.025738386
80	0xbc31ab47	-0.010844058
81	0x3e640c72	0.22270373
82	0x3d474663	0.04865111
83	0xbde27624	-0.1105769
84	0x3c485f31	0.012229727
85	0x3cf252cf	0.029580502
86	0xbd867bf0	-0.06566608
87	0x3e142ff1	0.14471413
88	0x3e459772	0.19296053
89	0x3b19823d	0.0023423575
90	0xbe943687	-0.2894785
91	0xbe0d383e	-0.13790986
92	0xbdf8dba0	-0.12151265
93	0x3db2a8ad	0.087235786
94	0x3e07b05d	0.13250871
95	0x3d1770ae	0.036972694
96	0xbbdf07e9	-0.006806363
97	0xbd350a82	-0.044199474
98	0x3e54e24f	0.20789455
99	0xbc465238	-0.012104563
100	0xbe165c7e	-0.1468372
101	0xbb2a6ce5	-0.0026004848
102	0x3bbf8118	0.0058442466
103	0xbd8bbf8d	-0.06823645
104	0x3c44e9ec	0.012018662
105	0xbd91afab	-0.07113584
106	0xbe68ebc6	-0.2274619
107	0xbddad826	-0.10685758
108	0xbd15cf59	-0.036574695
109	0xbe0a9616	-0.13533816
110	0xbd642cdc	-0.055706844
111	0x3c5dcc8c	0.013537537
112	0x3d837aef	0.06419932
113	0x3c8b74cd	0.017023468
114	0xbd46693e	-0.04844021
115	0x3d4c4b0d	0.04987626
116	0x3e062f30	0.13103938
117	0x3cace25a	0.021104027
118	0xbd8fc69f	-0.07020306
119	0x3d25863f	0.04041123
120	0x3d604596	0.054753862
121	0xbddc7380	-0.107642174
122	0x3e001afa	0.1251029
123	0x3e33dbbd	0.17564292
124	0xbe253e7a	-0.16137114
125	0xbd532419	-0.051548097
126	0x3df0e7e8	0.117629826
127	0xbb9860f3	-0.004650229
128	0x3e9922ac	0.29909265
129	0x3a8bf1eb	0.0010676956
130	0xbd41c995	-0.047311384
131	0x3a89ce98	0.001051384
132	0xbe20a038	-0.15686119
133	0x3e4fb873	0.20285206
134	0xbd131778	-0.035911053
135	0xbdb5e730	-0.08881986
136	0xbcee7f7f	-0.02911353
137	0xbd0f6151	-0.035004918
138	0x3e186203	0.14881139
139	0xbd6cd9cc	-0.057824895
140	0x3b5a4e32	0.0033310768
141	0xbdd2efc0	-0.10299635
142	0x3c639849	0.013891288
143	0xbd3224df	-0.043492194
144	0x3d945a92	0.072438374
145	0x3ddd56d6	0.10807578
146	0xbc5e1c44	-0.013556544
147	0xbcd9ff0b	-0.026610872
148	0xbb8e2146	-0.0043374626
149	0x3d93decc	0.072202295
150	0xbe26d6c5	-0.16292866
151	0x3e4e04ce	0.2011902
152	0x3da651af	0.08121049
153	0x3eca4310	0.3950429
154	0xbe296491	-0.1654227
155	0xbe7e7b09	-0.24851622
156	0x3c71de32	0.014762448
157	0xbddab7bb	-0.10679575
158	0x3d202d64	0.039105788
159	0x3d8b5a5f	0.06804346
160	0x3daf6597	0.085642986
161	0xbb2dc80d	-0.0026516945
162	0xbe24110c	-0.16022128
163	0xbe0236e9	-0.12716259
164	0x3d04f4be	0.032459967
165	0x3ce6a959	0.028156923
166	0x3d01ec2a	0.031719364
167	0x3daf18a0	0.08549619
168	0x3e0d57c2	0.13803008
169	0xbe16eb5c	-0.1473822
170	0x3d506dfe	0.050886147
171	0xbbb5e2b3	-0.0055507063
172	0xbd756b99	-0.059917066
173	0x3d2be2d4	0.041964367
174	0xbc94ed12	-0.01817945
175	0xbd3e1dda	-0.046415187
176	0xbdb0aa8c	-0.08626279
177	0x3e232464	0.1593185
178	0xbc352d99	-0.011058235
179	0x3d46ac78	0.048504323
180	0x3d87a0b4	0.066224486
181	0x3c5c09a9	0.013430038
182	0x3d05d3a1	0.03267253
183	0xbd9b940d	-0.07596598
184	0xbd7f8efa	-0.062392212
185	0x3d1e78b4	0.03868933
186	0xbe2a6bd8	-0.16642702
187	0x3dfaf7a1	0.12254263
188	0xbd452667	-0.048132326
189	0xbe12db1a	-0.14341393
190	0xbe4dfdef	-0.20116399
191	0xbdcae890	-0.09907639
192	0x3cab29a8	0.020893887
193	0xba8dadb0	-0.0010809209
194	0xbdbbe65f	-0.09174799
195	0xbb2ed006	-0.0026674285
196	0xbdc3e7bf	-0.095656864
197	0xbdf5a5ec	-0.11994538
198	0xbe7b73a3	-0.2455583
199	0xbe236fae	-0.15960571
200	0x3dae6b55	0.08516566
201	0xbccf1969	-0.025280671
202	0xbcf7f4c3	-0.030268079
203	0xbc8d54f6	-0.017252427
204	0xbd87c908	-0.066301405
205	0x3d93d782	0.07218839
206	0xbe11d92e	-0.14243004
207	0x3e2f7607	0.17134868
208	0x3dca1c0e	0.09868632
209	0x3de0721e	0.10959266
210	0xbd92c86a	-0.07167132
211	0xbda7e24a	-0.08197458
212	0xbdb55f55	-0.08856074
213	0xbd5f9af4	-0.054591134
214	0x3e5cf061	0.21576072
215	0x3a80450d	0.0009786204
216	0x3dd2d9ac	0.10295424
217	0x3e5301c1	0.20606138
218	0x3d1543dc	0.03644167
219	0xbd25b345	-0.040454168
220	0x3c7feb34	0.015620042
221	0xbcc265e2	-0.023730222
222	0x3dca602b	0.09881624
223	0xbbaa2ccc	-0.0051933285
224	0xbdbcac21	-0.092125185
225	0xbd836c84	-0.06417182
226	0x3d028c75	0.03187223
227	0x3c89522f	0.016762821
228	0xbd8fd106	-0.0702229
229	0xbcb647a5	-0.02225096
230	0x3d80ad31	0.06283034
231	0xbd17aeef	-0.037032064
232	0xbe55bdbe	-0.20873162
233	0x3e39904e	0.18121454
234	0x3e091de0	0.13390303
235	0x3e0e7c18	0.13914526
236	0x3e655b49	0.22398104
237	0xbd954231	-0.07288016
238	0xbdaf4d5e	-0.085596785
239	0x3d231cfa	0.039822556
240	0x3d926cbd	0.071496464
241	0xbeb3f33c	-0.3514651
242	0xbe405c18	-0.18785131
243	0xbe3faee9	-0.18719067
244	0x3e8027b9	0.25030306
245	0xbd8cb5ce	-0.06870614
246	0xbcc38393	-0.02386645
247	0xbd79b005	-0.06095888
248	0xbd6cefd8	-0.05784592
249	0xbe5dafeb	-0.21649139
250	0xbdeeb302	-0.11655237
251	0xbeab002f	-0.33398578
252	0x3d7ff284	0.06248714
253	0xbddcf7ea	-0.10789473
254	0xbc1a3624	-0.009412322
255	0xbdeb1f8b	-0.11480626

arith.constant23 f4 [512, 128]
0	0xbba7f91a	-0.0051261308
1	0x3d1dcf67	0.038527872
2	0x3dacbdc2	0.08434631
3	0x3db7672f	0.089552276
4	0xbca86e50	-0.020560414
5	0x3ce0f886	0.027462255
6	0xbd645e6a	-0.055754103
7	0x3e615cb4	0.2200802
8	0xbd03f532	-0.03221626
9	0x3c1d5d8b	0.009604822
10	0x3d9b7154	0.07589975
11	0x3c897432	0.016779039
12	0xbde579ac	-0.11204848
13	0xbd839ed1	-0.06426776
14	0x3e32f97d	0.17477985
15	0x3cf6b9b4	0.030117847
16	0xbd01113d	-0.03151058
17	0xbca6eeaf	-0.020377485
18	0x3e0851c2	0.13312438
19	0xbe0e7c26	-0.13914546
20	0x3d803d5f	0.062617056
21	0x3d07df7e	0.033172123
22	0xbdea5268	-0.11441499
23	0xbcf816f8	-0.03028439
24	0xbb9b90f0	-0.0047475025
25	0x3d6db581	0.058034424
26	0x3db98c9d	0.09060023
27	0x3d2d2024	0.04226698
28	0x3dc14a51	0.09438003
29	0xbd047bd8	-0.03234467
30	0xbd90bcba	-0.07067247
31	0xbcddfac0	-0.027097106
32	0x3b34f11a	0.0027609528
33	0xbb67a7a5	-0.0035347727
34	0x3cad2e10	0.021140128
35	0xbb034adb	-0.002003363
36	0xbde6ae41	-0.11263705
37	0xbd8223ac	-0.0635446
38	0x3c8f363a	0.017481912
39	0x3d9ffe94	0.07812229
40	0xbe015c9d	-0.12632985
41	0xbd84d670	-0.06486213
42	0xbd5ba01f	-0.0536195
43	0xbdc9c7d4	-0.09852567
44	0x3e0c50de	0.13702723
45	0xbb5511a4	-0.0032511735
46	0xbb5cd00e	-0.0033693346
47	0x3c2dad9e	0.010600476
48	0x3d0c2fe3	0.034225356
49	0x3d4cb34b	0.049975675
50	0xbb4a1178	-0.0030833166
51	0xbbcdfca3	-0.00628622
52	0xbd49e6fc	-0.04929255
53	0x3e055676	0.13021263
54	0x3d66bc13	0.056331705
55	0x3bb2801e	0.0054474017
56	0x3cadf1b5	0.021233419
57	0x3cc549f3	0.024083113
58	0x3d98d169	0.07461817
59	0x3c56070b	0.013063203
60	0x3ca84ab9	0.020543443
61	0x3de468d8	0.1115281
62	0xbd0b05db	-0.03394113
63	0xbdf3b961	-0.119005926
64	0x3d8eb90e	0.0696889
65	0x3cf29cfd	0.029615873
66	0x3d0f220c	0.03494458
67	0xbd5acefe	-0.05342006
68	0xbbe707af	-0.0070504765
69	0xbd9b0679	-0.07569594
70	0x3e5f956f	0.21834348
71	0xbd72f322	-0.0593139
72	0x3d2b3d94	0.041806772
73	0x3d15f1ae	0.036607437
74	0x3d040d24	0.032239094
75	0x3d6e41f6	0.058168374
76	0x3cad5f82	0.021163706
77	0x3d2f2a0f	0.04276472
78	0x3dca4cf9	0.098779626
79	0xbdefb12d	-0.117037155
80	0xbcc26803	-0.023731237
81	0xbcfec936	-0.031101804
82	0xbdb70725	-0.089369096
83	0xbd920d1d	-0.071314074
84	0xbbdca841	-0.0067339246
85	0xbcb75e51	-0.02238384
86	0x3dffe0c1	0.1249404
87	0x3c9b79f3	0.018979048
88	0xbd5246e6	-0.051337145
89	0x3c6cb951	0.01444848
90	0xbd86f41d	-0.0658953
91	0x3cdbe9fb	0.026844969
92	0x3de64d73	0.11245241
93	0x3dc79eaa	0.0974706
94	0xbcd002e4	-0.025392003
95	0x3e42889d	0.18997426
96	0xbc10616c	-0.00881229
97	0xbd4587f5	-0.04822536
98	0xbd8a9dd2	-0.06768383
99	0x3cfd5970	0.030926436
100	0xbc382249	-0.011238643
101	0x3d037719	0.032096002
102	0x3c9061ae	0.017624702
103	0x3d74db1f	0.059779283
104	0x3c1bc56d	0.009507519
105	0xbc00e112	-0.007866161
106	0x3d786926	0.060647152
107	0x3db6e395	0.089301266
108	0x3cc0233d	0.023454303
109	0x3da6ace3	0.08138444
110	0xbca03ee8	-0.019561246
111	0xbd7c4fdb	-0.061599594
112	0x3d8b2e68	0.06795961
113	0xbbce4c4f	-0.006295718
114	0x3be2f3fc	0.006926058
115	0x3e073c41	0.13206579
116	0x3db31699	0.087445445
117	0x3d5ee205	0.054414768
118	0x3d8bd3a8	0.068274796
119	0x3d043028	0.032272488
120	0x3ddcc4ec	0.10779747
121	0x3ab3f558	0.0013729734
122	0x3ca1e18f	0.019760875
123	0x3d12f801	0.035881046
124	0xbe110d52	-0.14165238
125	0xbd4440b8	-0.047913283
126	0x3d4df6c9	0.05028418
127	0x3d9cd206	0.07657246
128	0x3cc6e980	0.024281263
129	0x3db80f3d	0.089872815
130	0xbcb85529	-0.022501545
131	0xbcdb0fc8	-0.026740924
132	0xbc7cdc2d	-0.015433353
133	0x35f5b100	1.8305436e-06
134	0xbc83c95c	-0.016087227
135	0xbd6be61d	-0.0575925
136	0xbd47aa30	-0.048746288
137	0xbc8917f8	-0.016735062
138	0xbd84f984	-0.06492904
139	0xbda88662	-0.082287565
140	0xbd2c4309	-0.042056117
141	0x3d519ba5	0.051173825
142	0x3e031289	0.1280004
143	0x3d41397f	0.047173973
144	0x3ba7c5e8	0.005120028
145	0xbda27ba8	-0.07933742
146	0xbca9dee2	-0.020736162
147	0xbd87f149	-0.06637818
148	0x3b8bf207	0.0042707953
149	0x3dcd9228	0.10037643
150	0xbd0e3c9a	-0.034725763
151	0x3d7275fa	0.059194542
152	0xbd9afdd4	-0.07567945
153	0x3b5bfb06	0.003356637
154	0xbb45d051	-0.003018398
155	0x3e00652b	0.12538593
156	0x3a7d6437	0.0009666117
157	0xbd6ab76d	-0.057303835
158	0xbd26462e	-0.040594272
159	0xbdc70ebb	-0.097196065
160	0x3e026c09	0.12736525
161	0xbbf77393	-0.0075516193
162	0xbc48d26b	-0.012257199
163	0x3da8bac8	0.08238751
164	0xbcf69edd	-0.030105049
165	0x3e10652b	0.14101093
166	0xbc2812d3	-0.010258394
167	0xbdb7b053	-0.08969178
168	0x3d4712fa	0.04860208
169	0x3d9ec865	0.07753066
170	0x3c2bfa9c	0.010496762
171	0xbdd37590	-0.10325158
172	0x3c9ab55c	0.018885307
173	0xbb0de313	-0.002165024
174	0xbda17d68	-0.078852475
175	0x3d293aac	0.04131572
176	0xbd26498d	-0.040597487
177	0xbc99bd6f	-0.018767087
178	0xbd99603f	-0.074890606
179	0x3cbc45b4	0.022982456
180	0x3dafe546	0.08588652
181	0x3cfa8a7e	0.030583616
182	0xbdab3577	-0.08359807
183	0x3d1e47f1	0.038642827
184	0xbd269838	-0.04067251
185	0xbc8d4f73	-0.017249798
186	0x3dbd78f8	0.092515886
187	0x3d10a943	0.03531767
188	0x3bddddb4	0.006770814
189	0x3d87a4f8	0.06623262
190	0x3c8e8b65	0.017400453
191	0xbce0e336	-0.027452093
192	0x3d46236a	0.048373617
193	0xbd44ecc3	-0.048077356
194	0x3dd6da84	0.10490897
195	0x3d522f9d	0.05131494
196	0xbca318d2	-0.019909296
197	0xbb07bff4	-0.0020713778
198	0xbcd99760	-0.026561439
199	0x3ca44d4b	0.020056387
200	0x3d53ca12	0.05170638
201	0xbd700318	-0.0585967
202	0x3b31c2eb	0.0027124237
203	0x3e0b35ab	0.13594691
204	0x3cde7699	0.027156161
205	0x3c31464f	0.0108199855
206	0xbc190d6d	-0.00934158
207	0x3d8923c9	0.066962786
208	0x3d6ca005	0.057769794
209	0xbcb1a6ec	-0.02168604
210	0xbd2f61cd	-0.04281788
211	0x3cd28fdb	0.025703361
212	0x3d8b7b7d	0.06810663
213	0x3d83d983	0.064379714
214	0x3e17b30b	0.14814393
215	0x3c3b746d	0.011441332
216	0xbde60f2f	-0.11233365
217	0xbd277754	-0.040885285
218	0x3d463921	0.048394326
219	0xbd70b792	-0.058768816
220	0x3d785dcd	0.06063633
221	0x3cfc717b	0.03081583
222	0xbd1fc0e0	-0.0390023
223	0xbbd0833b	-0.0063633
224	0x3d821ccb	0.06353148
225	0xbce50a70	-0.027959079
226	0xbd8d84ea	-0.06910117
227	0x3c31caca	0.010851571
228	0x3dbfb605	0.09360889
229	0xbdc384d7	-0.095468216
230	0x3d81b4bd	0.06333301
231	0xbcae8996	-0.02130584
232	0xbc07ce94	-0.008288998
233	0x3db38a44	0.087666065
234	0xbd2239d1	-0.03960592
235	0x3cdb7595	0.026789466
236	0x3cfcf88e	0.030880239
237	0x3e266e4b	0.16253011
238	0x3ddc9f5b	0.10772582
239	0xbdc81248	-0.09769112
240	0xbd59af55	-0.053145725
241	0x3d59b46f	0.05315059
242	0xbd71f720	-0.059073567
243	0xbcee26f1	-0.029071303
244	0xbb824c19	-0.0039763567
245	0x390bd037	0.00013333639
246	0x3ca87d94	0.020567693
247	0xbd2cbf49	-0.04217461
248	0x3bc0e7dc	0.005887015
249	0xbd34de0b	-0.04415707
250	0xbd232ef1	-0.03983969
251	0xbd1384ee	-0.036015444
252	0xbd7ffb2c	-0.062495396
253	0xbd660c83	-0.056164276
254	0x3c947b30	0.018125147
255	0x3c8d8e4c	0.017279766

sequential_1/rnn_1/while/lstm_cell_1/add_1/ReadVariableOp f4 [512]
0	0x3d10cedc	0.035353526
1	0xbc1a50e2	-0.009418698
2	0x3cd1dd5c	0.025618248
3	0xbdd1d1fe	-0.10245131
4	0xbc5c6719	-0.013452315
5	0xbbe0194a	-0.006838952
6	0xbc94b131	-0.018150898
7	0x3cb72cdd	0.02236026
8	0xbbea8437	-0.0071568745
9	0x3c9a5e9a	0.018843938
10	0xba74d584	-0.00093396776
11	0xbcd0c440	-0.025484204
12	0x3c9819ee	0.018567052
13	0xbc9a35cc	-0.01882448
14	0xbcf2afdb	-0.02962487
15	0x3c6e082a	0.014528314
16	0x3bb86970	0.0056278035
17	0xbdfc5602	-0.12321092
18	0xbd462106	-0.048371337
19	0x3d90c74a	0.07069261
20	0x3c78440f	0.015152945
21	0xbdbfd5c1	-0.09366942
22	0xbda033ef	-0.078224055
23	0x3c04c0b9	0.008102589
24	0xba574872	-0.00082123943
25	0x3c02a034	0.007972766
26	0xbd143e49	-0.036192212
27	0xbd62da99	-0.055384252
28	0xbd75c9b3	-0.06000681
29	0x3c966391	0.018358024
30	0x3c07084a	0.008241722
31	0xbda4c39c	-0.08045122
32	0xbbbc210c	-0.005741244
33	0xbd3bed33	-0.045880508
34	0xbc00b05d	-0.007854548
35	0xbc6a4bc2	-0.014300289
36	0xbd2d7343	-0.04234625
37	0x3d105379	0.035235856
38	0x3d2bedfb	0.041975003
39	0xbca3d37a	-0.0199983
40	0xbbe9564a	-0.007120882
41	0xbd6bac3e	-0.05753731
42	0xbdc9fa87	-0.098622374
43	0xbbfef794	-0.0077809785
44	0xbb88432d	-0.0041583986
45	0x3d802cb4	0.062585264
46	0x3bc00e1a	0.005861056
47	0x3b3b4911	0.0028577487
48	0x3cf76b43	0.030202514
49	0x3d79f201	0.06102181
50	0x3c06a62f	0.008218332
51	0x3d4c21bf	0.04983687
52	0xbcf7944d	-0.030222083
53	0xbb94c4e6	-0.0045400737
54	0x3be01854	0.0068388376
55	0xbcce363c	-0.025172345
56	0xbc948f7b	-0.018134823
57	0xbd634fdc	-0.05549608
58	0xbc567b84	-0.013090972
59	0x3bc55d3e	0.006023078
60	0xba230bd4	-0.0006219719
61	0xbc303c93	-0.0107566295
62	0x3c2529fb	0.01008081
63	0xbd668f0c	-0.056288764
64	0x3cd4ec39	0.025991546
65	0x3d5f20fb	0.054474812
66	0x3d686cf8	0.056744546
67	0xbd096174	-0.033540204
68	0x3d28cc91	0.041210715
69	0xbd2cd72c	-0.04219739
70	0xbc217fed	-0.00985716
71	0x3dcfbd8f	0.10143577
72	0xbcbe2343	-0.023210173
73	0x3d17b215	0.037035067
74	0x3d64f0fd	0.055893887
75	0xbd4bfbd5	-0.049800713
76	0xbc6c02da	-0.014404977
77	0x3d000092	0.031250544
78	0xbcc1b56e	-0.023646083
79	0x3cdb7be0	0.026792467
80	0x3d79f624	0.061025754
81	0x3c4950da	0.012287343
82	0x3c2ac70c	0.010423433
83	0xbc748fbd	-0.014926848
84	0xbd0bf1de	-0.03416621
85	0xbd51fe40	-0.051267862
86	0x3d5f8e77	0.054579224
87	0xbc835233	-0.016030407
88	0xbbad3b42	-0.005286605
89	0x3db74adf	0.089498274
90	0xbd84a41a	-0.064766124
91	0xbcbe12bc	-0.023202293
92	0x3ca36ea9	0.019950228
93	0x3cce3f02	0.025176529
94	0xbd8c3a6b	-0.0684708
95	0x3d31ee91	0.043440405
96	0xbd1aa8c4	-0.037758604
97	0xbca00acf	-0.019536404
98	0xbda32244	-0.0796552
99	0x397c01f3	0.00024033319
100	0xbdd2fd40	-0.1030221
101	0x3c000e1e	0.007815866
102	0x3c91bb7f	0.0177896
103	0x3c8680cd	0.016418839
104	0xbc91034e	-0.017701771
105	0xbd841c77	-0.06450742
106	0x3aa3bb3c	0.0012491713
107	0x3c197841	0.00936705
108	0xbd0cc20a	-0.034364738
109	0x3d7de3d7	0.061984863
110	0x3da6b73a	0.081404164
111	0xbe0c9b9a	-0.13731232
112	0x3d5b5690	0.05354935
113	0x3d96dfce	0.07366906
114	0x3bf38f17	0.007432829
115	0x3d2ca00a	0.042144813
116	0xbd38d80c	-0.045127913
117	0x3d04416d	0.032288957
118	0xbd9767ea	-0.07392867
119	0xbd33d8d7	-0.043907966
120	0x3d693793	0.056937765
121	0x3d2b2a65	0.041788477
122	0xbce78c2a	-0.028265078
123	0x3c42798d	0.0118698
124	0xbcf171b1	-0.029473158
125	0x3cfdc563	0.03097791
126	0xbc493ac1	-0.012282074
127	0xbdfaef04	-0.1225262
128	0x3f7e692a	0.9937922
129	0x3f7ef8c6	0.9959835
130	0x3f776a9e	0.9664706
131	0x3f760697	0.96103805
132	0x3f760a2d	0.96109277
133	0x3f838244	1.0274129
134	0x3f842450	1.0323582
135	0x3f8d9506	1.1061103
136	0x3f77e1d2	0.9682895
137	0x3f7f962d	0.99838525
138	0x3f76773d	0.96275693
139	0x3f81e55c	1.014812
140	0x3f7ce633	0.98788756
141	0x3f7f881b	0.99817055
142	0x3f80d8a6	1.0066116
143	0x3f8511df	1.0396079
144	0x3f806ed3	1.0033821
145	0x3f79e0cc	0.9760864
146	0x3f849178	1.0356894
147	0x3f843853	1.0329689
148	0x3f837236	1.026923
149	0x3f82c7ba	1.0217202
150	0x3f7d2519	0.9888473
151	0x3f81957e	1.0123746
152	0x3f7d9840	0.9906044
153	0x3f82f98a	1.0232403
154	0x3f78d002	0.97192395
155	0x3f81fae7	1.0154694
156	0x3f7f962f	0.99838537
157	0x3f7e31a5	0.992945
158	0x3f7f4c6d	0.9972599
159	0x3f885b72	1.0652907
160	0x3f7d30d2	0.9890262
161	0x3f7d1cb5	0.9887193
162	0x3f8186b1	1.011923
163	0x3f797faa	0.97460425
164	0x3f934b68	1.1507387
165	0x3f7625f0	0.9615164
166	0x3f85730f	1.0425738
167	0x3f7ae9de	0.98013103
168	0x3f8e1d48	1.1102686
169	0x3f7eb1ee	0.9949025
170	0x3f7fa66c	0.99863315
171	0x3f818c91	1.0121022
172	0x3f836027	1.0263718
173	0x3f7e8868	0.9942689
174	0x3f8630c6	1.0483634
175	0x3f7ff283	0.9997942
176	0x3f80f4a2	1.0074656
177	0x3f876a2d	1.0579277
178	0x3f81cd24	1.0140729
179	0x3f85c846	1.0451744
180	0x3f84c134	1.0371461
181	0x3f809281	1.004471
182	0x3f83164c	1.024118
183	0x3f7f208b	0.9965903
184	0x3f81a1cf	1.0127505
185	0x3f7381b2	0.95119774
186	0x3f8527cb	1.0402769
187	0x3f7af199	0.980249
188	0x3f83e3d4	1.0303903
189	0x3f7c7502	0.9861604
190	0x3f84146a	1.031873
191	0x3f854d49	1.041421
192	0x3f86c56e	1.0529001
193	0x3f78a04d	0.971196
194	0x3f8abbe3	1.0838588
195	0x3f796d71	0.9743262
196	0x3f84c18a	1.0371563
197	0x3f7f6eb0	0.9977827
198	0x3f77fe9a	0.96872866
199	0x3f8dc20b	1.1074842
200	0x3f7f04e3	0.9961683
201	0x3f8849c8	1.0647516
202	0x3f83250e	1.0245683
203	0x3f7454e4	0.9544203
204	0x3f7814e9	0.96906906
205	0x3f8ac2dd	1.0840718
206	0x3f7d6564	0.98982835
207	0x3f81ff72	1.0156081
208	0x3f8ffa37	1.1248235
209	0x3f86cb02	1.0530703
210	0x3f76d6d1	0.96421534
211	0x3f805782	1.0026705
212	0x3f8040bf	1.0019759
213	0x3f765337	0.96220726
214	0x3f81975e	1.0124319
215	0x3f776fb4	0.9665482
216	0x3f85e527	1.0460557
217	0x3f859ed6	1.0439098
218	0x3f8298b7	1.0202855
219	0x3f7f63c5	0.9976161
220	0x3f817466	1.0113647
221	0x3f80eb27	1.0071763
222	0x3f85b269	1.0445071
223	0x3f679cb8	0.9047351
224	0x3f81e69a	1.0148499
225	0x3f87f7a7	1.0622452
226	0x3f65bce8	0.89741373
227	0x3f7bc65c	0.9834955
228	0x3f803a37	1.0017766
229	0x3f7d58db	0.9896371
230	0x3f8386c8	1.0275507
231	0x3f760765	0.96105033
232	0x3f88b963	1.0681576
233	0x3f836a28	1.0266771
234	0x3f783886	0.9696125
235	0x3f83bd2f	1.0292109
236	0x3f7689b3	0.9630386
237	0x3f863326	1.0484359
238	0x3f82ffd6	1.0234325
239	0x3f8274e7	1.0191926
240	0x3f84f4aa	1.0387166
241	0x3f80ddf2	1.0067732
242	0x3f88203e	1.063484
243	0x3f6aea09	0.9176336
244	0x3f7f7243	0.99783725
245	0x3f7e8dc3	0.9943506
246	0x3f7e29a3	0.9928228
247	0x3f7c3e96	0.98533
248	0x3f7718c6	0.96522176
249	0x3f815f26	1.0107162
250	0x3f845e3e	1.034126
251	0x3f81911f	1.0122412
252	0x3f802a46	1.0012901
253	0x3f84a935	1.0364138
254	0x3f8118d8	1.0085707
255	0x3f8245b1	1.0177518

arith.constant27 f4 [256, 128]
0	0x3da41629	0.08012039
1	0xbdbbcfe1	-0.09170509
2	0xbb4e524a	-0.0031482154
3	0x3dc9ab4c	0.098471254
4	0x3db7ccbf	0.08974599
5	0x3cb05a34	0.021527387
6	0xbe28a4c4	-0.16469103
7	0x3d99d4b7	0.07511275
8	0xbdb10db5	-0.086451925
9	0xbd263873	-0.040581178
10	0x3d893150	0.06698859
11	0xba141717	-0.00056491926
12	0xbd711843	-0.05886103
13	0xbe0ed26c	-0.13947457
14	0xbcf152ca	-0.029458422
15	0x3e1f5db4	0.15563089
16	0x3d69281f	0.056923028
17	0x3d3c5162	0.04597605
18	0x3d419bdb	0.047267776
19	0x3d63396e	0.05547469
20	0x3dd0643b	0.101753674
21	0x3c330146	0.010925597
22	0xbe079162	-0.13239053
23	0xbd4617f6	-0.048362695
24	0x3d90a979	0.07063574
25	0xbe15baec	-0.14622086
26	0xbdff87bf	-0.124770634
27	0xbdc265a2	-0.09492041
28	0xbd77b6a6	-0.06047692
29	0x3d89b3f0	0.067237735
30	0x3bb6c980	0.00557822
31	0xbdbd32be	-0.09238194
32	0x3db6b5a2	0.089213625
33	0xbd4b06d2	-0.04956705
34	0x3d52250e	0.05130487
35	0x3dead394	0.114661366
36	0x3d824e0f	0.06362545
37	0x3df1a5d2	0.11799206
38	0x3d8a1c01	0.067436226
39	0xbdcd6eba	-0.10030885
40	0xbdfdf442	-0.12400104
41	0x3c7571d2	0.01498075
42	0x3e46d5c7	0.19417487
43	0x3dfe119f	0.12405705
44	0xbd9005b2	-0.07032336
45	0xbd2349a2	-0.039865144
46	0xbc72aa8c	-0.014811169
47	0x3dc21f92	0.09478678
48	0x3d8d01eb	0.068851314
49	0xbd9e0aa7	-0.077168755
50	0xbc0baec8	-0.008525558
51	0xbd5b6ef9	-0.05357263
52	0xbd644827	-0.055732872
53	0x3d1032df	0.035204764
54	0x3e090ce9	0.13383831
55	0xbddb2080	-0.10699558
56	0x3e246010	0.1605227
57	0x3d7ca93b	0.06168483
58	0xbd8abf5a	-0.06774779
59	0xbc72fff5	-0.014831533
60	0xbd0651b0	-0.032792747
61	0xbd0c3265	-0.034227747
62	0x3d9ba37d	0.07599542
63	0x3b3a1441	0.002839342
64	0x3d610105	0.054932613
65	0x3e21d3db	0.15803473
66	0xbd844fb7	-0.06460517
67	0x3d7ef55b	0.062245708
68	0xbdd7bf69	-0.105345555
69	0x3c23fbf7	0.010008804
70	0x3d06232d	0.03274839
71	0xbe192b7a	-0.14957991
72	0xbdfe2d70	-0.1241101
73	0x3e0341b1	0.12818028
74	0x3b7d8a77	0.0038687268
75	0xbdd2a596	-0.10285489
76	0xbcb9fff5	-0.022705058
77	0x3d4b6372	0.049655385
78	0x3c48a53c	0.012246426
79	0xbde0a8d1	-0.10969699
80	0x3d032bb5	0.032024104
81	0x3cd83863	0.026394075
82	0xbd96e141	-0.073671825
83	0xbd166db6	-0.036725722
84	0xbe0bfcd0	-0.13670659
85	0xbc1d60cf	-0.0096056005
86	0x3d8254d7	0.06363838
87	0xbdb7d54f	-0.08976232
88	0x3d4f11c4	0.050554052
89	0xbd9280f4	-0.07153502
90	0xbd69a571	-0.057042543
91	0x3d8463d7	0.064643554
92	0xbd8804b2	-0.066415206
93	0x3d1fa475	0.038975198
94	0x3da251be	0.07925747
95	0x3da675ad	0.081279136
96	0xbd8b11dd	-0.067905165
97	0x3a915fce	0.0011091174
98	0x3d156d5b	0.036481243
99	0xbb223e74	-0.0024756463
100	0xbd2b9b54	-0.04189618
101	0xbdb572d9	-0.08859796
102	0xbe57b0e8	-0.21063578
103	0xbdb4fe2b	-0.08837541
104	0xbc6cdfe4	-0.014457677
105	0xbc905d37	-0.017622573
106	0xba0ba672	-0.00053272315
107	0x3ce6b525	0.028162548
108	0x3d89ebf1	0.067344554
109	0xbd4e5a82	-0.050379284
110	0xbda14f81	-0.07876492
111	0x3d97207c	0.07379243
112	0xbe1445be	-0.1447973
113	0xbdd1648a	-0.102242544
114	0x3cdbc8e8	0.026829198
115	0x3dfbbd3a	0.122919515
116	0x3c9e09c5	0.019291768
117	0xbd88e4c5	-0.06684259
118	0xbbadbaf6	-0.0053018285
119	0xbdf99c47	-0.12188011
120	0x3c808b35	0.01569138
121	0xbdb2b1ef	-0.087253444
122	0x3c2f6317	0.010704777
123	0xbd1d1aab	-0.03835551
124	0xbba6cc8e	-0.005090303
125	0x3dcc7a0c	0.09984216
126	0x3d97bb68	0.07408792
127	0xbc64049f	-0.013917117
128	0x3b538045	0.00322725
129	0xbcd6e421	-0.026231827
130	0x3e059d64	0.13048321
131	0xbc5a9285	-0.013340597
132	0xbdb7624c	-0.089542955
133	0x3d625f42	0.055266626
134	0xbdb2a197	-0.08722227
135	0xbe6b23bf	-0.22962855
136	0x3ca083a0	0.019594014
137	0x3d889b85	0.06670288
138	0x3d73554d	0.05940752
139	0x3e5095e7	0.20369683
140	0x3d07c9ce	0.03315144
141	0xbe89735a	-0.2684582
142	0xbda6d46e	-0.081459865
143	0xbde221e8	-0.11041623
144	0xbdb5e5ca	-0.088817194
145	0x3e86d9fe	0.2633819
146	0xbbd61ba2	-0.006534056
147	0x3e002ec0	0.12517834
148	0xbdd355fd	-0.10319135
149	0xbe49920b	-0.19684617
150	0xbd332b52	-0.043742485
151	0xbc4e8e2b	-0.012607138
152	0xbd0ec604	-0.03485681
153	0x3d3d1077	0.04615828
154	0x3d9b26b7	0.07575744
155	0x3e47325f	0.19452809
156	0xbd62f57b	-0.05540989
157	0x3e5b3c8f	0.2140982
158	0xbd3d4e1e	-0.046217076
159	0xbe14bf07	-0.14525996
160	0x3b57dbcd	0.0032937408
161	0x3d877eb6	0.06615965
162	0x3c728f7b	0.014804716
163	0x3e0c9476	0.13728508
164	0x3c224d60	0.009906143
165	0xbd9ce359	-0.076605506
166	0xbddcae30	-0.10775411
167	0x3dbe9e3d	0.09307525
168	0x3e11b8f9	0.14230718
169	0xbe198d21	-0.14995243
170	0x3de1ac8f	0.11019241
171	0xbc90e993	-0.017689502
172	0xbe3bb05b	-0.18328993
173	0xbd48e1d7	-0.049043503
174	0xbe5481cd	-0.2075264
175	0x3da1cdca	0.07900579
176	0xbd026a7a	-0.031839825
177	0xbdef34c6	-0.116799876
178	0x3d1adc10	0.037807524
179	0xbc38073c	-0.011232194
180	0xbd2c42d9	-0.04205594
181	0x3e31a431	0.1734779
182	0x3e45a765	0.19302137
183	0xbc99bd3e	-0.018766996
184	0xbccd7b2f	-0.025083153
185	0x3e1673d8	0.14692628
186	0x3ca14636	0.0196868
187	0xbe03ebf2	-0.12882975
188	0xbde67b67	-0.11254006
189	0x3da670a2	0.08126952
190	0xbd69f176	-0.05711504
191	0x3c09d549	0.008412668
192	0xbe47128c	-0.19440669
193	0x3dd5ed91	0.10445703
194	0x3d571e8e	0.052519374
195	0xbea17bb6	-0.31539696
196	0x3d44bf43	0.048033964
197	0xbe0939b9	-0.13400926
198	0xbcd09bd5	-0.025464932
199	0x3e0bc801	0.13650514
200	0xbcce980d	-0.025218988
201	0xbd7ae314	-0.061251715
202	0xbe84bc42	-0.2592488
203	0xbdfc9ecf	-0.12334978
204	0xbdb478c7	-0.08812099
205	0xbd62245b	-0.055210453
206	0x3d70a498	0.05875072
207	0xbdfc55bc	-0.1232104
208	0x3d4d3fd7	0.05010971
209	0x3e2859ad	0.16440459
210	0xbd8da277	-0.06915753
211	0x3d70bc49	0.058773313
212	0x3e115c49	0.1419536
213	0x3d6ad453	0.057331394
214	0xbe4d1126	-0.20026073
215	0x3db8b7d0	0.090194345
216	0xbd2a5983	-0.04158927
217	0xbd2d258a	-0.04227213
218	0x3cfb6848	0.030689374
219	0xbdddda86	-0.10832696
220	0x3e0c4733	0.13699035
221	0x3c84392d	0.016140545
222	0x3e114296	0.14185557
223	0xbcaadeab	-0.02085813
224	0x3dcd96be	0.100385174
225	0xbde929a7	-0.11384898
226	0xbe26a809	-0.16275038
227	0xbe162317	-0.14661823
228	0xbd92c16c	-0.071657985
229	0x3d14e8d8	0.03635487
230	0x3d1734f1	0.036915723
231	0x3e0986dc	0.13430351
232	0x3e7eab1b	0.24869959
233	0x3e4a95b1	0.19783665
234	0xbc0fe8eb	-0.008783559
235	0xbd497d3a	-0.04919169
236	0xbd879bb0	-0.06621492
237	0xbd941e4a	-0.0723234
238	0x3dc29105	0.095003165
239	0xbdc2e93f	-0.095171444
240	0x3de93b43	0.113882564
241	0xbe41dc49	-0.18931688
242	0xbdd2baec	-0.10289559
243	0x3d5d41b4	0.054017738
244	0x3caa3841	0.020778777
245	0x3daa4c0f	0.08315288
246	0x3dead979	0.11467261
247	0x3dc1353e	0.09433983
248	0x3e3777a1	0.17916729
249	0x3daaa18d	0.083315946
250	0x3dcb8582	0.09937574
251	0xbc467097	-0.012111804
252	0xbc062ed6	-0.0081898775
253	0x3df2bf3e	0.11852883
254	0xbd2df39e	-0.04246866
255	0x3e3cad77	0.18425547
